neuron/js/ChessBot.onnx (onnx, 106474 bytes, 4 tensors)

onnx::MatMul_20 f4 [770, 20]
000000 2b 01 31 3d 36 14 7f 3d 8b a8 d8 3c bf 64 b1 3d
       0.043214004 0.062275134 0.026447555 0.08661794
000010 ba 2c 2e 3d c6 19 e0 bd a5 44 98 3d 3d 1b bd bd
       0.042523123 -0.10942416 0.07434968 -0.09233711
000020 1a 92 a3 bd d1 d0 a3 3d da 68 a9 bd 2e 47 d3 bd
       -0.07986851 0.07998813 -0.08271952 -0.10316311
000030 39 d9 87 3d e1 56 8d 3d f7 85 c8 3c 2b 71 17 3d
       0.06633229 0.069013365 0.024477942 0.03697316
000040 76 11 10 bd aa 3a a8 bd ed a2 d0 bd 39 8e 98 3d
       -0.035172902 -0.08214314 -0.101873256 0.07449002
000050 35 be b7 bc 1e 0b 01 3c d4 70 cd 3c 67 83 90 3d
       -0.022429565 0.007876186 0.025078215 0.07056313
000060 a8 93 6e 3d 7d dc 01 bd 7d 72 20 3d 67 df 13 bd
       0.058246285 -0.031704415 0.039171685 -0.036101725
000070 c4 9f 2c bd 9a 45 ae 3d b4 af 86 3c ea b1 af bc
       -0.042144552 0.08509369 0.016441204 -0.02144714
000080 3b 8e 58 3d 46 c4 5a 3d 87 fd 10 3a 7d dc 6c bb
       0.052870017 0.053409837 0.00055309426 -0.0036142163
000090 5b 3d ec 3a 01 c2 1b bd 73 9b 81 bd cb 6e 3f 3d
       0.0018023656 -0.038026813 -0.06328478 0.04673652
0000a0 38 1d 8f 3d 0e b0 56 3d c6 f3 3c 3d d8 38 9f 3d
       0.06987995 0.052413993 0.046130918 0.07774514
0000b0 2e 46 ff 3c 27 a9 9f bd 40 4b 53 3c c3 ab 31 bd
       0.031161394 -0.07795935 0.012896359 -0.043376695
0000c0 9b 82 c2 bd 7a 54 a1 bd 5d 00 06 bd 26 b7 d4 bd
       -0.09497567 -0.07877441 -0.03271519 -0.10386495
0000d0 76 77 d0 ba f0 b4 b3 3d 38 8e 89 3d 87 7f cf 3c
       -0.0015904743 0.087747455 0.06716579 0.025329364
0000e0 77 b6 70 bd f5 7e 38 bd be 0c 36 bc 0b 23 c0 3c
       -0.058767762 -0.04504295 -0.011111436 0.02345421
0000f0 dd c8 f4 3d 3e df e3 3d 69 b1 14 3e 4c 58 ff 3d
       0.11952374 0.111265644 0.14520802 0.12468013
000100 63 d0 18 3e 4b 18 eb bd a4 12 fc 3d 4c be 1c be
       0.14923243 -0.11479243 0.12308243 -0.15306967
000110 c2 8a 6d bd 36 b6 38 3d 5b 7e 0e be 28 e1 0b be
       -0.057993658 0.045095645 -0.13915388 -0.13660109
000120 b4 50 36 3e 60 e5 22 3e 0a ba f2 3d 5a cd 05 3e
       0.17804223 0.15907812 0.118518904 0.13066617
000130 a1 1c bf bd 10 63 0d be 56 c7 0d be c3 8e dc 3d
       -0.093316324 -0.1380732 -0.13845572 0.10769417
000140 74 4a 48 3c b0 b1 a8 bd 72 38 cb bc aa fc 5b 3b
       0.012224782 -0.08237016 -0.024807189 0.0033567348
000150 c5 85 66 3d c3 ef ce 3c a9 80 98 bc 9a 0c a5 bb
       0.056279916 0.025260812 -0.018616037 -0.0050369026
000160 18 93 b5 3a 09 61 ec bc db 5c dc 3c ab 15 59 3d
       0.0013853041 -0.028854864 0.026899746 0.05299918
000170 09 71 00 3d cc 9a 1f 3b a8 ad 2c bd 2e 19 7e bd
       0.0313578 0.002435374 -0.0421578 -0.062035732
000180 0b b7 16 bb 94 29 cd bd b7 ef 11 bd ca 31 da bc
       -0.0022997286 -0.10017696 -0.035629 -0.02663507
000190 ef 21 07 3d 3e 46 10 3d f3 ea cf ba 8a 3a 00 bd
       0.032991346 0.03522324 -0.0015862867 -0.031305827
0001a0 86 7b c3 3c 04 4a 28 3c c9 1f 7a bc 58 97 94 3c
       0.023862612 0.010271553 -0.015266367 0.018138573
0001b0 fd 46 db bc 8f 40 bd bb 9a f7 58 3c 4e cf 05 bd
       -0.026767248 -0.0057755182 0.013242627 -0.032668404
0001c0 31 ae f6 3c 3e 68 d4 3c f3 50 f4 b9 36 95 02 bc
       0.030112358 0.025928613 -0.00046599619 -0.007970145
0001d0 3c ce b9 3c 04 c1 09 bc a3 c7 04 3d 9f 57 a8 bc
       0.022681348 -0.008407835 0.03241695 -0.020549593
0001e0 28 04 20 3d fb cc ac bd f3 d1 6e bd 39 4d ad bd
       0.039066464 -0.084375344 -0.058305692 -0.08461995
0001f0 1f 99 9f bd 8e 24 c4 3d 0b b9 0a be 29 25 89 3d
       -0.077928774 0.09577285 -0.13547151 0.06696541
000200 62 80 2a 3e 6b ff 8f be 6e 3e bf 3d f2 3c 57 3d
       0.16650537 -0.28124556 0.093380794 0.052548356
000210 9f f4 e1 bd 19 7a 89 bd 97 eb 32 bc 96 9e b6 bc
       -0.11032986 -0.067127414 -0.010920427 -0.022292417
000220 0f eb 04 3c 03 b3 af 3d 11 42 c4 3d ef dc 54 be
       0.008112683 0.08579066 0.09582914 -0.20787404
000230 b1 e4 8a bd a7 0e 93 bd 85 b4 32 3d 48 4b 6c bc
       -0.06781901 -0.07180529 0.043629188 -0.014422245
000240 9e 8f 0d be 39 79 e9 3c c1 9a 8b bd db 54 ff 3c
       -0.13824317 0.028500186 -0.06816626 0.031168392
000250 5b 84 dc bd a8 11 ea 3d ab ee 09 be 42 00 a9 3d
       -0.10767432 0.11429149 -0.13469951 0.08252002
000260 67 9d 97 bc 90 c5 aa 3c 4f b1 f8 bc e9 be 00 bd
       -0.018507672 0.020846158 -0.030357985 -0.031432066
000270 c3 6c 01 bb 8c 62 8a bc 7a 9e 81 3d 88 89 b9 be
       -0.0019748665 -0.016892694 0.06329055 -0.3623774
000280 8f 48 73 3d 9b 9d 54 bd 21 18 ce bd d8 5d 95 bc
       0.05939537 -0.051908117 -0.10063196 -0.018233225
000290 4c 77 14 3d 04 1b 81 3d 19 38 18 bd 6e 86 4f 3d
       0.036246583 0.06303981 -0.037162874 0.05066531
0002a0 d8 0c b9 3d 88 0d 97 3d e5 3c d0 3d 0c aa 79 3d
       0.09035653 0.07375628 0.10167865 0.060953185
0002b0 09 31 99 bd 7b d2 06 bd 3a 06 9d bd 0e 78 8d bd
       -0.07480056 -0.032915574 -0.07667203 -0.06907664
0002c0 e9 4c b4 3c 22 6e 44 3c f0 a6 00 bb a4 e7 9a 39
       0.02200933 0.011989148 -0.0019630753 0.00029545755
0002d0 78 36 04 3e 56 cf 14 be 01 62 68 bd 9a 6b 13 be
       0.12911403 -0.14532217 -0.05673409 -0.14396515
0002e0 e1 8e a2 be f5 49 e5 3d 59 28 8d be ed f3 8a 3d
       -0.31749633 0.11195747 -0.27569845 0.067848064
0002f0 aa 3c bc 3d 60 bb 87 be 80 76 b3 bc 88 22 f4 3d
       0.09191258 -0.26510143 -0.021907091 0.11920649
000300 64 8e 20 be 9e 9f 0e be ab 41 eb 3c 49 27 14 bd
       -0.15679318 -0.13928077 0.028717836 -0.036170278
000310 b1 0d a4 3d 09 bc b9 3d d6 30 47 3e 0f 65 61 be
       0.08010424 0.09069068 0.19452223 -0.22011207
000320 f0 3a e7 bd 04 a5 bd bc 97 bf a3 3c 3c 96 83 bd
       -0.11290538 -0.023149975 0.019988818 -0.06425139
000330 f1 f1 64 3d 4e a0 92 bc 2e 5d a7 3b ba 27 1e bd
       0.055894796 -0.017898705 0.0051075434 -0.038612105
000340 21 13 8d bd e6 9a bd 3d 79 26 06 3c 69 8d 02 3d
       -0.06888414 0.0925806 0.0081878835 0.03187314
000350 25 5a 6f bc 6f dd a9 3d 64 be 43 3d ec af 31 bd
       -0.0146088945 0.08294188 0.047788993 -0.043380663
000360 95 d8 9b bd 30 d1 a9 bd e0 1e 06 bd 56 04 e1 3d
       -0.07609669 -0.082918525 -0.03274429 0.10987155
000370 66 7f a3 bc 20 fe 96 bc 87 d9 c2 3c a9 2c 10 3d
       -0.01995821 -0.018431723 0.023785366 0.03519884
000380 a3 f8 0e 3d ab 48 89 bc e2 4e f0 bc 8e 1f 54 bc
       0.034905087 -0.016758284 -0.02933449 -0.012946976
000390 88 64 f7 bc bb 3a eb bb 13 e6 fa bc 14 4b ce bc
       -0.030199304 -0.007178632 -0.030627286 -0.025182284
0003a0 4b 01 d0 3b e1 06 00 3c e9 e5 09 bd e7 f5 90 3b
       0.0063478104 0.00781414 -0.033666525 0.004423845
0003b0 d7 08 c7 3b b8 b4 58 3c ae 30 c1 3c 6c 12 64 3c
       0.006074052 0.01322668 0.023582783 0.013920408
0003c0 5a ef 3d 3d 67 ce 64 3d db 19 62 3d 1a 13 d8 3d
       0.04637084 0.055860903 0.05520044 0.10550518
0003d0 ef aa 24 3d 8e 4f 5c bd 18 3c 50 3d 3b fc 3b bd
       0.040202077 -0.053786807 0.05083856 -0.045894843
0003e0 77 2b c0 bd e3 04 45 3e 91 4a e5 bd c1 9a 9b bd
       -0.0938329 0.19240145 -0.11195863 -0.07597876
0003f0 e4 26 cc 3d 0c 83 02 3e a0 56 1d ba 7c 54 91 3c
       0.09968355 0.12745303 -0.0006001983 0.01774048

onnx::MatMul_21 f4 [20, 10]
000000 ad 5e 98 be 96 15 1b 3c 13 62 74 be d8 a8 0b 3e
       -0.29759732 0.009465596 -0.23865537 0.13638628
000010 77 d3 ec bd 8b cb eb be ee 6b 01 3e e2 ae 28 3d
       -0.11563771 -0.46053728 0.12638828 0.041182406
000020 48 ed 09 bf a4 db 6d be a8 61 f3 be 18 08 80 3e
       -0.5387769 -0.23228317 -0.47535443 0.25006175
000030 da 95 a6 3b e2 58 b8 3b e5 62 cb 3c fb f2 64 bf
       0.0050837817 0.00562583 0.02482743 -0.8943326
000040 b0 18 b5 3d 7f cc a3 be 3b 35 fa be 72 69 c9 3e
       0.088425994 -0.31991956 -0.48868737 0.3933826
000050 ef 80 00 bf 55 e7 ae bd 2b ce e6 bc 80 8a 4a 3e
       -0.5019674 -0.08540217 -0.02817448 0.19779396
000060 f0 b8 96 3e c7 ca af 3b cf 34 a3 3e 78 45 f5 be
       0.2943797 0.005364749 0.31876227 -0.47904563
000070 44 fb 1e bf b9 60 57 3e eb b6 13 bf ef 27 ad 3e
       -0.6210215 0.2103299 -0.57700986 0.3381953
000080 b8 5e ea be c3 bb ba bd b3 42 cf bd 33 37 af bf
       -0.4577539 -0.09117844 -0.10120144 -1.368872
000090 6c 3e fa 3e 3c 4b 3d bf 53 40 87 bf 23 42 aa be
       0.4887575 -0.73942924 -1.0566505 -0.33253583
0000a0 0b 14 dc be 6c d5 4a be 19 bd 03 be 54 4c c8 be
       -0.42984042 -0.19807976 -0.12865104 -0.39120734
0000b0 19 67 87 3e a9 12 0c 3e 91 b7 f7 bd 15 0c cb be
       0.26445845 0.13678993 -0.120955594 -0.39657655
0000c0 e9 95 15 bd 2b 87 43 bb f2 4b 04 3f 81 85 df be
       -0.03651992 -0.0029835205 0.51678383 -0.43656543
0000d0 a7 4c 35 3d d6 e2 75 3d 5d 9d 9c be 98 10 27 3f
       0.044262554 0.06003078 -0.3058881 0.65259695
0000e0 ca 68 46 be e0 c2 8e 3e 56 a3 4a 3e b8 e2 0c bf
       -0.19375911 0.27883053 0.1978887 -0.55033445
0000f0 ff 82 79 be a9 ab da 3e 12 82 6c be 79 06 9d be
       -0.24366377 0.4270909 -0.23096493 -0.30669
000100 4e 75 ef 3e fe cc 9e bd b6 f0 08 be 5e 5f bc be
       0.46769184 -0.07753943 -0.13373074 -0.3679151
000110 5c 21 20 3f 31 92 2c 3f 19 76 ab 3e d3 f2 af be
       0.625509 0.6741057 0.3348854 -0.34364948
000120 f5 95 dc 3d 95 58 86 be 97 e2 be be b3 54 9d be
       0.107707895 -0.26239458 -0.3728225 -0.30728683
000130 5d 0a 71 3e 5a c4 e4 3d a3 30 b0 3d 31 77 da bc
       0.2353911 0.111702636 0.08603027 -0.026668163
000140 bc 7e c9 bd be 2a a8 be 87 40 a1 be f3 f5 84 3d
       -0.09838626 -0.3284511 -0.31494543 0.064922236
000150 bc 42 6f be 6c fc 4a 3e b5 e3 c7 be d4 3a e4 bb
       -0.23365301 0.19822854 -0.39040914 -0.0069650207
000160 45 85 a8 be 41 c6 83 bd 20 47 0a 3e 5d dc 5b 3e
       -0.32914177 -0.06434298 0.13503695 0.2147078
000170 90 7d b5 be bd 12 5d be 63 63 7b 3e 38 62 8f bc
       -0.3544736 -0.2158918 0.24549632 -0.017502889
000180 7b c1 ca 3e e2 07 b1 bd a2 2c e1 3e 62 2b 94 3f
       0.3960074 -0.08644082 0.43979365 1.1575739
000190 91 7c 22 bd e1 99 0b bd 83 a4 a1 3d 3f a3 8f be
       -0.039669577 -0.034082297 0.07892706 -0.28054234
0001a0 42 99 49 be 99 99 d8 be ff e6 74 be a1 97 45 be
       -0.1968737 -0.42304686 -0.23916243 -0.19296123
0001b0 f2 b1 39 be ae cc 63 be 25 76 1b 3f cf 9e c6 be
       -0.18134287 -0.22246048 0.6072715 -0.38793036
0001c0 61 ac aa bd bb 76 d5 bd 8f 97 af b9 8e 2b dd 3f
       -0.0833366 -0.10423037 -0.0003349152 1.7278917
0001d0 b1 74 ad bd 84 0f d9 3e 0a 4f 1c 3f be f1 a5 be
       -0.08469523 0.4239465 0.61058104 -0.32410997
0001e0 a2 4f 06 bf 50 74 cb be da f2 75 bd a4 44 b9 be
       -0.5246526 -0.39737177 -0.060046054 -0.3618518
0001f0 fc 7b de bd 6d c8 7d 3f 3a 48 f2 3e fb 3e 2d bf
       -0.10863492 0.9913395 0.4732073 -0.67674226
000200 b0 bb 11 be 40 34 a0 be e1 79 3b be dc f9 41 3e
       -0.14231753 -0.31289864 -0.18308212 0.1894297
000210 22 02 8f 3d 6d 3b 31 be 8f 80 8e 3e 17 39 61 be
       0.06982829 -0.17307825 0.27832457 -0.21994434
000220 25 a4 a0 3e 00 9b b1 be 54 ad 0d bf 99 e8 db bd
       0.31375232 -0.34688568 -0.553426 -0.10737724
000230 07 e9 e0 3b d8 bb 3f be 69 b5 c4 3b a0 8c 40 3e
       0.0068637165 -0.18724 0.006003071 0.18803644
000240 18 88 40 3e b4 8f ad be 70 26 16 be 22 83 ab be
       0.18801916 -0.338987 -0.146631 -0.33498484
000250 ac 34 b7 be 7c 23 28 be 39 fb 95 be c2 4a 9f bd
       -0.35782373 -0.16419786 -0.2929323 -0.07777931
000260 79 df fc bd 1b 0d 4b 3e df 4b 10 be 97 ec 55 3e
       -0.123473115 0.19829218 -0.14091443 0.20891033
000270 98 7e 02 be e6 88 ae be a5 61 85 be a7 ad 6f 3e
       -0.12743604 -0.3408882 -0.2605106 0.23406087
000280 cf 55 9f 3e c5 26 40 3d 9e 99 96 3d c9 1e ec bd
       0.31120154 0.046911974 0.07353519 -0.11529309
000290 21 ca cb be 37 97 b7 be 59 3e 3e 3e 0d 10 f8 bc
       -0.3980265 -0.35857555 0.18578471 -0.030281091
0002a0 54 49 6a be 97 a5 87 3e e3 f2 e9 3e 96 f3 04 3c
       -0.22879535 0.26493523 0.4569312 0.008114716
0002b0 1f 8a 46 3f 36 03 3c 3d 09 a0 a8 be 5f 7e 2a bf
       0.77554506 0.0459015 -0.32934597 -0.66599077
0002c0 0a 1e 81 be 20 48 b4 3e 85 a0 b2 39 6c 9b ad 3e
       -0.2521823 0.35211277 0.00034070402 0.3390764
0002d0 23 76 05 3f 3f 3e a5 be 9f 8e 4f 3f e5 8a 2a bb
       0.5213339 -0.32274053 0.81077 -0.002602273
0002e0 f6 ef 54 be be fe fd 3e 3d 11 10 3f 3f 9e c7 3e
       -0.20794663 0.49608415 0.56276304 0.3898792
0002f0 62 c4 48 be e9 11 36 bf ef e3 a6 be fc dd b4 3d
       -0.19606164 -0.7112108 -0.32595775 0.08831403
000300 e6 23 3f 3e ae 98 be be 9e ee 92 3d 65 45 26 bf
       0.18666038 -0.3722586 0.07174419 -0.6494964
000310 bc 4b 02 3e 3e c5 8c be fa af 2f be 17 a0 f5 3d
       0.12724203 -0.27494234 -0.17156973 0.11993425

onnx::MatMul_22 f4 [10, 5]
000000 50 ef 80 be ab 60 3f 3f ca be 98 be 96 85 c3 3e
       -0.2518258 0.7475688 -0.2983306 0.38187855
000010 24 14 01 bf fd f9 c6 be 8e 00 12 bf 58 0e cc 3e
       -0.5042136 -0.388626 -0.57032096 0.39854693
000020 d8 7e b6 bd 42 06 8e bd df 28 83 3f 34 80 23 bf
       -0.08910912 -0.06934787 1.0246848 -0.638675
000030 cf 47 39 be 4e f1 11 3f a3 fe 07 be 76 b7 21 3f
       -0.18093799 0.57008827 -0.1328073 0.63170564
000040 6b cb b5 bf b5 4d 6d 3f 38 78 9f bf 37 e7 48 3f
       -1.4202703 0.92696697 -1.2458563 0.78477806
000050 e3 74 c6 3e 6c 71 1a bf b3 2f 37 3e dd d0 0c 3f
       0.38761052 -0.6032932 0.1788929 0.550062
000060 13 d5 a1 3e 1b f6 bc 3e 8f 65 85 3e 0e 03 a4 bc
       0.31607875 0.36906514 0.26054046 -0.020020988
000070 dd 5c 42 be db 5c 92 bd 3c aa e2 3d 85 14 4d bf
       -0.18980737 -0.07146617 0.11067626 -0.80109435
000080 d2 5d 19 3f bd b8 0d bf a1 df a1 3e 2f be 9e be
       0.59908783 -0.55360013 0.31615928 -0.31004474
000090 65 9d 34 3f ce bd cc be 90 80 89 3e d0 85 46 be
       0.70552665 -0.3998856 0.26855898 -0.19386983
0000a0 55 4a 1a 3e 59 98 91 3e 15 c2 99 3e 80 67 25 3e
       0.15067418 0.28436545 0.30030885 0.16152763
0000b0 a9 09 cd 3e 14 90 8b be bc 28 21 3e c9 21 33 3e
       0.40046433 -0.2725836 0.15738195 0.17493357
0000c0 cb d9 97 bf 89 43 6b 3e
       -1.186334 0.22974981

onnx::MatMul_23 f4 [5, 1]
000000 36 a5 a7 bf 85 5d 54 3f f2 4a 03 bf df f7 c9 bf
       -1.3097293 0.829552 -0.5128623 -1.5778769
000010 8f aa 05 bf
       -0.52213377
