neuron/js/PlanktonBot.onnx (onnx, 104901 bytes, 4 tensors)

onnx::MatMul_27 f4 [385, 20]
000000 aa 5f aa 3d 56 35 95 ba 61 38 86 bd 8b c2 67 3d
       0.08319028 -0.0011383693 -0.06553722 0.056582015
000010 49 c2 3d 3d 5d 3a d4 bd d8 2c d3 3c 89 5e ca 3d
       0.046327863 -0.103626944 0.02577822 0.098813124
000020 e5 61 2e 3d dd 76 f2 3d 04 b7 93 bd 10 5c b5 3d
       0.04257383 0.118390776 -0.07212642 0.0885545
000030 18 45 c1 3d 29 43 d3 3c 44 5a e7 3c dd 0e 15 3d
       0.09437007 0.02578886 0.028241284 0.036391128
000040 6b 43 d1 3d 49 f2 9c 3c 9c 96 0a bd 4c d6 c2 bd
       0.10217937 0.0191585 -0.03383504 -0.0951353
000050 c3 28 47 3d bf e6 0e bd ec 7d 15 3d f6 58 67 3d
       0.048622858 -0.034888025 0.03649704 0.056481324
000060 6d bb 8a bc ae 11 2e bd 06 41 fe bc 52 72 89 3d
       -0.016935075 -0.04249733 -0.031036865 0.06711258
000070 aa 37 c7 bd 54 11 8c 3e dc 16 04 bd b5 d9 0f 3d
       -0.09727414 0.2735697 -0.032248363 0.03511973
000080 93 55 ad 3d bb 4d a8 be c6 69 50 3c 73 6f a1 bd
       0.084635876 -0.32871804 0.012720531 -0.078825854
000090 c7 7b 7a 3d a6 17 98 bd d9 c1 26 bd 6c 9a 59 3d
       0.0611532 -0.074263856 -0.04071221 0.053125784
0000a0 b3 6c f2 3d ea e6 da bd 9b 62 48 bd 5f 08 2b 3d
       0.11837139 -0.106885746 -0.048922163 0.04175603
0000b0 cd 4b 3c bd d5 3c 44 bd 40 fa c8 bd b7 32 0d bc
       -0.045970727 -0.047909576 -0.098133564 -0.008618048
0000c0 5d b2 83 3c bc b2 02 3d b6 84 10 3e 9a b3 80 3d
       0.016076261 0.031908736 0.14113125 0.06284256
0000d0 12 67 bb 3d 87 32 cd bd a9 d5 59 3d 9c 65 80 bd
       0.091505185 -0.10019403 0.053182278 -0.062693805
0000e0 95 f1 8d 3d c0 35 ac 3d 98 02 b0 bc 44 0e b1 3a
       0.06930844 0.084086895 -0.021485612 0.001350828
0000f0 90 1a ff 3d 85 22 a6 bd 41 ed b9 3a b6 2f 28 3e
       0.12456238 -0.08112053 0.0014185087 0.1642445
000100 b7 4a 99 bc e4 22 dd bd eb dd 44 3a fd 03 fa 3d
       -0.018712385 -0.107976705 0.0007509875 0.12207792
000110 9b e4 8d 3e b6 fa 66 3e fa 76 e1 bd cf 02 f4 3d
       0.27713475 0.22556576 -0.11009021 0.11914598
000120 9e 5d 05 3e 59 76 75 bd 77 64 0f 3e b5 8c c1 bd
       0.13023993 -0.05992732 0.14003168 -0.09450666
000130 06 e6 0a 3e 8f 2d 8e bb 9a 4f b3 3d 42 24 67 bd
       0.1356431 -0.004338927 0.08755417 -0.056431063
000140 c6 61 6e bc 6a 37 94 3d 2f 15 00 3d 48 35 02 3d
       -0.014549678 0.07237132 0.031270202 0.031789094
000150 d4 75 d0 bb 4c 3a a2 bc 4e a0 4a 3c ff 41 6c 3d
       -0.0063617025 -0.019803189 0.012367321 0.057680126
000160 70 2a 5d bc 7b f8 d9 3d b8 d1 d2 3c 85 77 03 3d
       -0.013498887 0.10643097 0.025734767 0.032096405
000170 d7 cb 70 3c 0e 23 61 3d a5 2c 64 3b db 15 28 3d
       0.014697037 0.05496507 0.003481665 0.041036468
000180 0c 0f f6 3c 43 a5 83 3b 73 5e 8e bc 47 b8 30 3d
       0.030036472 0.0040175035 -0.017379021 0.04314449
000190 0d 5c 83 bb 9c db 4c bd 10 aa 68 bb 0b da 38 bc
       -0.004008776 -0.050014123 -0.0035501756 -0.011282454
0001a0 4f 9b 3d bd a5 f8 19 3d 60 da 87 3c ca e9 31 bd
       -0.046290692 0.03759064 0.016583622 -0.04343585
0001b0 f5 e7 0a 3d 9b 5f 73 bc fb 8c 1f bd 50 1a bb bc
       0.033912618 -0.014854337 -0.03895281 -0.022839695
0001c0 87 47 0c bc b0 ee d5 3b 6d 44 34 bd 36 b7 08 3d
       -0.008561975 0.006528698 -0.04401057 0.03337785
0001d0 eb 18 00 3d fc eb eb bc e5 45 20 bd b6 5c 43 bd
       0.031273764 -0.02879905 -0.039129157 -0.047695838
0001e0 d4 47 ab 3d 42 6a 6c bc 39 fa 24 bd b5 e9 8a 3d
       0.083633095 -0.014429631 -0.040277693 0.06782857
0001f0 60 95 1c bd 5e ad 16 3d c5 2a 4b 3b 61 7a be 3d
       -0.038228393 0.03678643 0.0031000834 0.09300686
000200 f7 c0 98 3d 28 5c 87 3e e6 5f 97 bb 1c f9 8f 3d
       0.0745868 0.26437497 -0.0046195863 0.07029936
000210 bc 27 a7 3d eb 06 04 3a 4f 90 8d 3d 6b 23 22 bd
       0.081618756 0.0005036431 0.0691229 -0.03958456
000220 1b db 47 3d 84 20 93 3c 78 8c 9c bd 1c c3 8f bd
       0.04879294 0.01795984 -0.0764398 -0.07019636
000230 96 96 c1 3b d2 4a 76 3c bf be f2 bc f4 5f 9b 3c
       0.005907844 0.015032487 -0.02963197 0.018966652
000240 23 c2 ac bb a1 e6 6d bd c0 ad 34 3d 6b 73 61 3d
       -0.0052721663 -0.058081273 0.044111013 0.05504171
000250 7c 21 02 bd 35 18 8c 3e ee 32 59 bd e6 f9 52 3d
       -0.031770214 0.27362218 -0.053027086 0.051507853
000260 c2 1e 02 3d 0b 66 06 bd 2e d6 37 3d 09 e3 5a 3d
       0.031767614 -0.03281216 0.044881992 0.053439174
000270 3c 53 f4 3c 35 b5 a5 bd 57 08 6d bc 77 fe 96 bd
       0.029824845 -0.08091203 -0.01446732 -0.07372754
000280 94 17 30 38 44 1b a6 3c 37 b4 97 bd 38 82 98 3c
       4.198363e-05 0.020276673 -0.0740742 0.01861678
000290 b0 65 dc 3b f4 59 86 bd 3b 3f ad 3c c3 da 95 3d
       0.0067259893 -0.06560126 0.021148315 0.07317116
0002a0 ae 25 ad 3c 65 da ab 3d 6e c4 87 bd 24 f4 07 3d
       0.021136131 0.08391265 -0.06629263 0.033191815
0002b0 4c 75 ab 3d 78 8d 6e bd de 74 18 bc 2b ad f7 bb
       0.08371982 -0.058240384 -0.009305207 -0.007558485
0002c0 20 42 39 3d 4b b7 f3 bc b8 a8 56 bc b9 95 ae bd
       0.045229077 -0.029750487 -0.013101749 -0.08524651
0002d0 40 02 eb 3d cf dd 0f bd 20 75 82 bd 01 b0 d0 3d
       0.114750385 -0.035123643 -0.06369996 0.1018982
0002e0 a9 b1 90 bd b9 a9 53 bd 28 27 77 bc 27 ae 10 3e
       -0.07065136 -0.051675532 -0.015085019 0.14128934
0002f0 57 67 1f 3e 65 cf dd 3e 1d 36 63 bd 5e 17 d2 3d
       0.15566765 0.43322292 -0.05547153 0.10258363
000300 ca d7 d1 3d 82 99 d2 bc c2 50 93 3d 05 b3 8a bd
       0.102462366 -0.025707964 0.07193138 -0.067724265
000310 5b 05 e3 3d 99 3b 95 bd 66 3f dc bd f7 85 bc 3c
       0.11085006 -0.07286758 -0.1075428 0.023013098
000320 3c 40 fa 3c ba ba ad bc 39 b4 6c 3d cf 7a 64 3d
       0.030548207 -0.021207202 0.05778906 0.055781182
000330 a3 92 ff 3b 88 a2 90 bd 78 88 0c bd f5 34 49 bc
       0.007799463 -0.070622504 -0.034309834 -0.012280692
000340 19 5a 35 bd 38 c8 c7 3d d8 d5 8c 3c 3d d3 f0 3c
       -0.044275377 0.097549856 0.017191812 0.029397601
000350 59 9a dc 3c 87 fb 02 3e ed 91 f3 3a 22 e4 3c 3c
       0.026929067 0.12791263 0.0018582918 0.0115290005
000360 1f 35 14 3d 72 c9 b6 3d 65 a5 8d 3c 1b 05 32 3d
       0.036183473 0.089251414 0.01729078 0.0434619
000370 2e 37 98 3c ad 88 00 bd a5 d3 4b bd 19 d3 9d 3b
       0.018581 -0.031380344 -0.049762387 0.0048164246
000380 cd 8e 1e bd 88 ee 47 bd 99 be a0 3c b5 2a 3e 3d
       -0.038710404 -0.048811466 0.019622134 0.046427447
000390 ad bd 89 3a 1c 67 fc 38 97 cb f9 bc e7 17 37 3d
       0.0010508798 0.00012035502 -0.030492587 0.04470053
0003a0 6c 76 6b bc 80 48 12 bd da f7 01 bd 76 fe 0d bc
       -0.014371496 -0.035713673 -0.03173051 -0.008666625
0003b0 47 39 87 3a af 48 08 3d ba 24 17 bd 87 9a 0e bd
       0.0010316753 0.03327244 -0.03690026 -0.034815338
0003c0 64 ba d3 3d 03 44 38 bc 51 06 83 bd 32 a6 8d 3d
       0.103382856 -0.011246684 -0.06397689 0.06916465
0003d0 1c d2 25 bb e6 ea d5 bd ec f2 ba bc 16 19 e0 3d
       -0.0025302237 -0.10445194 -0.022820912 0.10942285
0003e0 32 c1 b1 3d 20 17 3f 3e 40 ac ca ba f1 de be 3d
       0.08679427 0.18661165 -0.0015462711 0.093198664
0003f0 df e1 f2 3b 49 fb a3 3b 8c 3d 81 3d 0f ef c5 3c
       0.00741218 0.0050043208 0.06310567 0.024161844

onnx::MatMul_28 f4 [20, 10]
000000 35 4f 8e 3e ef 4a 53 be a3 df a7 3e 77 e5 0b 3e
       0.27794805 -0.20634054 0.3278781 0.13661753
000010 e2 2a 2d 3e 8a 99 86 be 6f 56 5d 3e 23 43 36 be
       0.1691089 -0.26289016 0.21615003 -0.17799048
000020 4a 1a dc bd e4 80 52 3e e4 c1 d8 3e 2a ef 5b 3e
       -0.10747202 0.2055698 0.42335427 0.21477953
000030 ca 47 3c be e3 04 96 3b 07 0a 06 3f d5 12 81 3e
       -0.1838676 0.0045782193 0.5235905 0.2520968
000040 e0 ef d9 3d 03 1d ac 3e 56 8e a6 3e fa 5f 0a 3e
       0.10641456 0.33615884 0.3253047 0.13513175
000050 32 4c 04 3f 21 11 51 3e e4 d5 b4 be 04 16 62 be
       0.51678765 0.2041669 -0.35319436 -0.22078711
000060 3f 06 73 3f 85 3a 7e 3e de bc cc be ec d4 a5 3e
       0.94931406 0.24827011 -0.39987844 0.3238901
000070 81 af c3 3e 17 e7 3e be 45 3f b1 bd 8b 04 e9 3d
       0.38219836 -0.18642841 -0.08654646 0.1137782
000080 83 c4 b0 3e 7b 62 0f 3e f6 a3 25 3e 75 4c 2f 3d
       0.34524927 0.14002411 0.16175827 0.042797524
000090 2e 10 55 3e c3 5b ac bd 66 93 60 be 3a ba 38 3e
       0.20806953 -0.0841594 -0.21931228 0.1803979
0000a0 ad 65 1f 3e ed 89 af 3e 04 5b b5 be bd 62 81 be
       0.1556613 0.34284917 -0.35421002 -0.25270644
0000b0 5c 75 0d 3f 01 61 bc 3e 13 dd 9b be 69 ab e2 3d
       0.552572 0.36792758 -0.30442104 0.1106785
0000c0 4b 4b d3 3e da de a4 be 2a 35 08 3f 9e 51 cd 3e
       0.4126838 -0.32201272 0.5320612 0.4010133
0000d0 2c 9e 26 be 16 61 20 be bc ee b2 3e 71 68 86 3e
       -0.16271275 -0.15662035 0.34947765 0.26251557
0000e0 f9 61 fb bd 82 76 98 3e 99 5c 4e 3e a4 0e ea bd
       -0.12274546 0.29777914 0.2015251 -0.11428574
0000f0 f8 8b 0f 3f c2 97 97 3e 06 4b 51 be a7 c2 29 3e
       0.5607295 0.2960797 -0.20438775 0.1657816
000100 8f 3b 0e 3f 7e 17 b8 3d 6d 26 4d be 1a e3 19 3d
       0.5555963 0.08988856 -0.2003419 0.037570097
000110 dc 2c d9 bb 04 eb 12 bc f9 86 23 be 3c f5 98 be
       -0.006627662 -0.008967165 -0.15969457 -0.298746
000120 8b 00 8a 3e 0e 12 e3 3e 8d 6a ea bc b3 15 9f be
       0.2695354 0.44349712 -0.02861526 -0.31071243
000130 59 f3 03 3e 66 4a 87 be ca 24 be be 3c 32 22 3e
       0.12885799 -0.2642395 -0.37137443 0.15839475
000140 1f e8 20 3f cf bd d8 be bb d6 c5 3e a0 c1 9c 3e
       0.6285419 -0.42332312 0.3864039 0.30616474
000150 80 8f 5c 3f b4 86 ac be 5f 73 37 3e 28 42 9c be
       0.86156464 -0.3369652 0.17915104 -0.30519223
000160 f7 f8 f9 be b4 d5 ad 3d 7e 02 0d 3f 4d 5c b4 bd
       -0.48822758 0.08488026 0.5508193 -0.088066675
000170 08 1f a9 3d 47 67 87 3e d4 e0 23 3f 44 b7 78 3b
       0.08257872 0.26445982 0.64014935 0.0037951032
000180 21 45 6f 3e 5d 8f b7 3d ee 39 ee 3d 5a b4 8a 3d
       0.23366214 0.08962891 0.11632143 0.067726806
000190 62 78 da 3d ad 90 98 3e de e4 3f be 0e 44 95 be
       0.106674924 0.2979788 -0.1873965 -0.29153484
0001a0 f1 4f bd 3e b2 d5 8b 3e fc b9 b0 be c5 25 69 3e
       0.36975053 0.27311474 -0.34516895 0.22768314
0001b0 7d ff 5a 3e d1 f7 f5 3b 0f 82 55 3d af 36 e2 bd
       0.21386524 0.0075063487 0.052125987 -0.11045586
0001c0 ce a7 9b 3e 6b 4d 8b 3e 07 9b 65 3e 2b 76 23 bd
       0.30401462 0.27207503 0.2242242 -0.039907616
0001d0 11 50 90 3e 6f 23 31 be 47 aa f7 bd a5 f7 e7 3d
       0.28186086 -0.17298673 -0.12093025 0.11326531
0001e0 d3 f7 1a be d0 4f 85 be 4c 8a ac 3e fb f7 82 3e
       -0.151336 -0.26037455 0.33699262 0.2557982
0001f0 b4 5f 41 3e 47 be f2 bd f4 fe 3b 3e 59 bc 66 be
       0.18884164 -0.11852699 0.18358976 -0.22532786
000200 18 01 66 be 89 91 62 3e 7a a0 67 3d 16 70 95 be
       -0.22461355 0.2212583 0.056549527 -0.29187077
000210 58 0d 9a 3e d4 fd e1 3d 00 44 a0 3e e1 a0 2d bd
       0.30088305 0.11034742 0.3130188 -0.042389754
000220 7c 8c d1 3e 07 56 99 be cf a1 b5 be 4d 18 85 3e
       0.40927494 -0.29948446 -0.35475013 0.25995103
000230 cf 7a 92 be 94 42 04 be 45 34 d8 3e 71 1d 31 3d
       -0.2860932 -0.12916023 0.42227378 0.04324097
000240 c2 98 04 bd 42 c0 80 bd 0e 39 24 3e a5 b8 69 bd
       -0.032372244 -0.0628667 0.1603739 -0.057060856
000250 24 65 0c be 7f 2c 9d 3e b7 70 6a 3e fc e6 aa 3e
       -0.13710457 0.3069801 0.2289456 0.33379352
000260 c2 86 2b 3c 65 db 6e 3e 94 61 85 3e c2 2d 80 3e
       0.0104691405 0.2332588 0.2605101 0.2503491
000270 6f 3d 8f bd f6 b8 6a 3e 29 82 85 3e 8e 3e 0f bd
       -0.069941394 0.2292212 0.26075867 -0.034971766
000280 2c 6c 2a 3e 78 a4 9a bd 05 b3 6b 3e 03 d2 40 3e
       0.16642827 -0.07550901 0.2301751 0.18830113
000290 f8 ea e0 3d 97 3a 88 be 26 36 ac 3e 40 5c 42 bd
       0.10982317 -0.266072 0.33635062 -0.047451258
0002a0 fb 37 9c 3d 68 b6 5c 3e ed e4 7c 3f 9b 72 15 3e
       0.07627865 0.21553957 0.98786813 0.145945
0002b0 aa cf 03 bf 7e 1a 8c be d0 dd 4d 3f c1 e9 cc 3e
       -0.51488745 -0.27363962 0.80416584 0.4002209
0002c0 7f a4 4e be 68 c8 c8 3e b7 58 2a 3e a7 2f e4 be
       -0.20179938 0.39215398 0.16635405 -0.44567606
0002d0 99 7f 8f 3e ca b8 98 3e e4 54 3a be 6d e2 97 be
       0.28027037 0.29828483 -0.18196446 -0.29664937
0002e0 a2 7e 8e 3e f8 94 bf 3e c7 2f a2 be 42 f0 01 3e
       0.27830988 0.37418342 -0.31677076 0.12689307
0002f0 f4 d1 9f 3e a9 d5 bd be 6a cf 12 3f 3f 2d 46 3e
       0.3121487 -0.37077072 0.5734774 0.19353198
000300 ef c1 8a be 26 0a b0 3d 54 87 05 3f 60 b1 02 3e
       -0.27101085 0.08595686 0.5215962 0.12762976
000310 ee f8 93 be 1f 81 ce 3e cb 87 3e 3e aa dc 63 be
       -0.28900856 0.40332887 0.18606488 -0.22252145

onnx::MatMul_29 f4 [10, 5]
000000 c9 5f 03 3e 92 a3 6e bd 60 29 1e 3f c8 61 f5 bc
       0.12829508 -0.05826146 0.61781883 -0.029953852
000010 11 e5 b6 3d 30 dd 04 bf a2 df b7 be b6 40 b4 3e
       0.0893041 -0.51900005 -0.35912806 0.3520562
000020 0b 3a ea be 16 8d a7 be c9 ef 68 3e 75 84 b8 3e
       -0.45747408 -0.32724828 0.22747721 0.36038557
000030 d5 0e 91 be ee 7d b1 3e 09 e1 86 3e b3 24 5c 3e
       -0.28331628 0.3466639 0.26343563 0.21498375
000040 e1 f3 dd 3d 13 2d 88 3e a2 f4 89 3e f9 ef 9a 3e
       0.10837532 0.2659689 0.26944453 0.3026121
000050 f8 51 65 bd c5 6e 39 3e a3 3c 0d 3f f0 42 a1 3c
       -0.055986375 0.18108661 0.5517065 0.019685239
000060 9f c9 c9 ba 20 73 12 bc 31 de 10 bf 9a a5 dc 3e
       -0.0015395171 -0.008938581 -0.5658904 0.43095094
000070 1c f1 8e 3c a1 fc 03 bf 63 df fd 3d ec c2 1c 3e
       0.017448954 -0.51557356 0.12396123 0.15308732
000080 f8 87 72 bd 92 d6 c9 3e dc 33 8f 3e c0 69 81 bd
       -0.0592117 0.39421517 0.27969253 -0.06318998
000090 55 f2 af be 19 7b 35 3f 10 7f b8 be bb 04 82 be
       -0.34364572 0.7089096 -0.3603444 -0.25394234
0000a0 3b 71 fa be f6 55 aa be c8 d6 15 3f 25 c3 c3 be
       -0.48914513 -0.33268708 0.58530855 -0.3823482
0000b0 2e 67 6d be 96 31 d6 3e a2 f1 05 3f 7c be 3c bd
       -0.23183891 0.41834706 0.5232183 -0.046080098
0000c0 3c e0 cb 3e fd 2e 25 bd
       0.39819515 -0.040328015

onnx::MatMul_30 f4 [5, 1]
000000 d9 31 f8 be a4 96 34 bf 77 d0 c6 3e 85 a1 0d bf
       -0.4847553 -0.7054236 0.3883092 -0.55324584
000010 d6 cc 47 bf
       -0.7804693
