neuron/js/PlanktonBot.onnx (onnx, 80103 bytes, 4 tensors)

onnx::MatMul_21 f4 [385, 20]
0	0xbc7de6f5	-0.015496959
1	0x3ce7c098	0.028290078
2	0x3d16f6cc	0.036856458
3	0x3e3c6b8d	0.18400402
4	0xbc69089f	-0.014223247
5	0xbcd19126	-0.025581907
6	0x3dd00c0c	0.10158548
7	0x3e0a0f05	0.13482292
8	0x3d168a82	0.036753185
9	0x3d155d1f	0.03646576
10	0xbd9de4ab	-0.077096306
11	0x3d9f61c2	0.07782318
12	0x3b015e01	0.0019739869
13	0xbcea3fea	-0.02859493
14	0xbdf9e4f1	-0.1220187
15	0xbc41cf02	-0.01182914
16	0x3da5e112	0.080995694
17	0xbcdccaaf	-0.026952116
18	0x3d5dfba2	0.054195054
19	0xbd689f8f	-0.056792792
20	0xbcd59041	-0.026069762
21	0xbbbe1f9e	-0.005802109
22	0x3d3ef7f4	0.046623185
23	0x3d55863f	0.05212998
24	0xba73dc16	-0.000930251
25	0xbc8b0fbd	-0.016975278
26	0x3d2f1bc4	0.04275109
27	0x3c8b6673	0.017016625
28	0xbd6bb7ad	-0.057548214
29	0x3b767b79	0.0037610217
30	0xbcacd410	-0.021097213
31	0x3ba40312	0.005005249
32	0x3ccb9db9	0.024855481
33	0xbcf5f923	-0.030026024
34	0xbcb97eb0	-0.022643417
35	0xbd35e7da	-0.044410564
36	0xbce41327	-0.027841164
37	0x3a49ba21	0.0007695277
38	0x3d8dd1a0	0.069247484
39	0xbdf08a3e	-0.117451176
40	0xbd860041	-0.06543017
41	0x3ab1974d	0.001354912
42	0x3cde6072	0.027145598
43	0x3ca80f36	0.020515066
44	0x3bfd7415	0.0077347853
45	0xbdf11761	-0.11772037
46	0x3b066e00	0.0020512342
47	0x3da70ad5	0.08156363
48	0xbe0234ad	-0.12715407
49	0x3c04755f	0.008084624
50	0x3d0a2838	0.03372976
51	0x3d55da3f	0.05221009
52	0xbdafc7d0	-0.08583033
53	0xbc91a4ff	-0.017778872
54	0xbb604185	-0.003421874
55	0xbd53df37	-0.051726546
56	0x3d0e5cc0	0.034756422
57	0xbda20fef	-0.07913195
58	0xbc892c63	-0.016744798
59	0x3daa6e6f	0.08321845
60	0xbd8b799c	-0.068103045
61	0xbda23741	-0.07920695
62	0x3e2450d3	0.16046457
63	0x3e5c4f41	0.21514608
64	0xbd021768	-0.031760603
65	0xbd68c02f	-0.056823906
66	0x3dd40f14	0.103544384
67	0x3e2cf3d4	0.16889888
68	0xbc6d8eeb	-0.014499406
69	0x3d9e30f1	0.077241786
70	0xbd290768	-0.04126683
71	0x3e33dae4	0.17563969
72	0xbd9311d3	-0.07181134
73	0xbded7bc6	-0.115958735
74	0xbd867629	-0.06565506
75	0xbde5616c	-0.112002224
76	0xbcf0364e	-0.02932277
77	0xbbec321e	-0.007208123
78	0x3dc53471	0.09629143
79	0xbda727c0	-0.081618786
80	0x3d5456b9	0.051840518
81	0x3d8f50b3	0.06997814
82	0x3c90da7c	0.017682306
83	0x3d840886	0.06446938
84	0x3ce05625	0.027384827
85	0x3cbb5f27	0.02287252
86	0x3c9066af	0.017627088
87	0x3cac365d	0.021022016
88	0xbcf2394a	-0.029568333
89	0x3cd7e56d	0.026354516
90	0xbb6cdebf	-0.003614351
91	0x3ccb30f6	0.02480362
92	0x3c815936	0.01578961
93	0x3d12bb9e	0.035823457
94	0xbca238d0	-0.019802481
95	0xbcb043f2	-0.021516774
96	0x3d356b22	0.044291623
97	0x3cf04e4f	0.029334215
98	0x3c166368	0.009178974
99	0xbd16db98	-0.036830515
100	0x3caad1f6	0.02085207
101	0xbd0cb30c	-0.03435044
102	0xbceba1f5	-0.02876375
103	0x3d148fff	0.036270138
104	0x3cd28d9d	0.025702292
105	0xbc9a3c34	-0.018827535
106	0xbcfba5fe	-0.0307188
107	0x3d4ac3a2	0.049502976
108	0x3d089c6e	0.033352308
109	0xbcae0809	-0.021244066
110	0xbce51980	-0.02796626
111	0xbc91e0be	-0.01780736
112	0x3c1d3a7c	0.009596463
113	0x3b9b4504	0.004738452
114	0x3baa8925	0.005204337
115	0x3d395f8a	0.04525713
116	0xbcefd6f8	-0.02927731
117	0x3c7ccc67	0.015429593
118	0x3c2d41ce	0.010574771
119	0xbd4a49ec	-0.049386904
120	0xbaa25328	-0.0012384402
121	0x3b52fa27	0.003219256
122	0x3cbaa5fd	0.022784228
123	0x3e39a0eb	0.18127792
124	0xbd4d76de	-0.05016219
125	0x3c493455	0.012280543
126	0x3d993c35	0.07482187
127	0x3d8a1cc8	0.06743771
128	0x3c345021	0.011005432
129	0x3d252dcb	0.040326875
130	0xbd4d9938	-0.05019495
131	0x3da455e4	0.08024195
132	0xbd7a85a2	-0.0611626
133	0xbddcb2a3	-0.1077626
134	0xbd46f397	-0.04857215
135	0x3aed1773	0.0018088653
136	0x3d98d5ac	0.0746263
137	0xbdf9824f	-0.121830575
138	0x3d9ced46	0.07662444
139	0x3c72f2e2	0.014828416
140	0x3d302737	0.04300615
141	0x3d02106a	0.031753935
142	0xbb9ae6fe	-0.0047272434
143	0x3e25abc7	0.16178809
144	0xbda0f5ea	-0.078594044
145	0xbd1dc18c	-0.03851466
146	0x3da232d8	0.07919854
147	0x3d9fd42d	0.07804141
148	0x3cbb2f2d	0.022849644
149	0xbd4694ac	-0.04848163
150	0x3c190aca	0.009340951
151	0xbc969e8c	-0.018386148
152	0xbb31aad7	-0.0027109885
153	0xbcd101fa	-0.025513638
154	0xbdb7227c	-0.08942124
155	0xbd17f1c4	-0.0370958
156	0xbbf79070	-0.00755506
157	0xbb9718bd	-0.0046111033
158	0x3d5a9fdd	0.053375114
159	0x3c74edd6	0.014949283
160	0x3ccf732c	0.025323473
161	0x3b940551	0.0045172353
162	0x3d41ac28	0.04728332
163	0x3e14534b	0.14484899
164	0xba8ad468	-0.0010591866
165	0xbda84ab5	-0.08217374
166	0x3bfce05e	0.0077171763
167	0xbc1ce33e	-0.009575663
168	0xbc8a1261	-0.016854467
169	0xbaf44210	-0.0018635411
170	0xbde75220	-0.11294961
171	0xbb9079a2	-0.004409031
172	0xbd3a1561	-0.045430545
173	0xbd4367f6	-0.047706567
174	0xbde6d74b	-0.112715326
175	0xbdaed3fc	-0.085365266
176	0xbcaedbcd	-0.021345044
177	0xbc95c5d4	-0.018282808
178	0x3d41039a	0.047122575
179	0xbcb83644	-0.022486813
180	0xbda60dfe	-0.081081375
181	0xbd495b64	-0.049159423
182	0x3e07b932	0.1325424
183	0x3e593fc7	0.21215735
184	0xbd1d0879	-0.03833816
185	0xbdadfbfb	-0.08495327
186	0x3e0d25fe	0.13784024
187	0x3e1039cf	0.14084552
188	0xbcb588da	-0.022159982
189	0xbd7f1b2b	-0.06228177
190	0xbd9918f7	-0.07475465
191	0x3e115dfc	0.14196008
192	0xbd3c9fb1	-0.04605073
193	0xbe16ba8d	-0.14719601
194	0x3c4f764e	0.012662483
195	0xbd451b2b	-0.048121613
196	0xbc0968f1	-0.008386836
197	0xbd3f297f	-0.046670433
198	0x3dc08f68	0.094023526
199	0xbda4d622	-0.08048655
200	0x3d805baa	0.062674835
201	0x3c40f3d6	0.011776885
202	0x3d65a7cf	0.056068238
203	0x3d80bf43	0.0628648
204	0x3df82db0	0.12118089
205	0x3bafe9cd	0.0053684474
206	0x3c9e5fa4	0.019332714
207	0x3d8542df	0.06506895
208	0x3c45b25e	0.012066452
209	0xbbac5bd3	-0.0052599697
210	0x3c4463cd	0.011986685
211	0x3d689fe7	0.05679312
212	0x3d048160	0.032349944
213	0xbc82d765	-0.015971849
214	0x3deb7b04	0.11498073
215	0x3d6f8722	0.058478482
216	0x3e0eab91	0.13932635
217	0xbd0f19ee	-0.034936838
218	0x3bfe9e0c	0.0077703055
219	0x3bea4dea	0.0071504014
220	0x3d2fc5eb	0.04291336
221	0xbc84b82b	-0.0162011
222	0x3c592d3c	0.013255414
223	0x3c6131a9	0.01374475
224	0x3cd251df	0.025673805
225	0xbd470f7a	-0.048598744
226	0xbd3970e3	-0.045273673
227	0x3c34f407	0.011044509
228	0x3c95fca4	0.018308945
229	0xbd0d877a	-0.03455303
230	0xbd1a9eba	-0.03774903
231	0x3c60a8f9	0.013712161
232	0xbd4de207	-0.050264385
233	0x3ce8636d	0.028367722
234	0x3cfceec8	0.030875579
235	0xbd36977e	-0.044578068
236	0xbc2789f9	-0.010225766
237	0x3cbcb717	0.023036523
238	0x3c529009	0.0128517235
239	0xbcd15c45	-0.025556693
240	0xbd41c735	-0.04730912
241	0xbd1ecde9	-0.03877059
242	0x3c059be9	0.008154848
243	0x3e2f1ab7	0.17100035
244	0xbd978cfe	-0.07399939
245	0xbd63ae30	-0.05558604
246	0x3dc30c98	0.095238864
247	0x3dee4569	0.11634333
248	0xbd368527	-0.044560578
249	0xbb301f01	-0.0026873949
250	0xbd09a1fe	-0.033601753
251	0x3d88702b	0.06662019
252	0xbd452301	-0.048129085
253	0xbda6c9c0	-0.081439495
254	0x3ca1b281	0.019738438
255	0xbd7fa989	-0.06241754

onnx::MatMul_22 f4 [20, 10]
0	0x3e6afbc2	0.229476
1	0xbe5bff62	-0.2148414
2	0x3d84839a	0.064704135
3	0xbe917866	-0.2841217
4	0xbd764d5f	-0.06013238
5	0x3e33faa6	0.17576084
6	0x3ec2f501	0.38077548
7	0x3e2a8806	0.16653451
8	0xbd5da152	-0.054108925
9	0xbe058def	-0.13042425
10	0xbc74a00f	-0.014930739
11	0xbc9e825a	-0.019349266
12	0xbdfbb652	-0.12290634
13	0x3b28ab84	0.0025736997
14	0x3d12dd23	0.035855424
15	0xbc03ff8e	-0.008056534
16	0x3eaa6d51	0.33286527
17	0x3e99fbe3	0.30074987
18	0xbde332bc	-0.11093661
19	0xbe1f51e8	-0.15558589
20	0xbe31a04e	-0.17346308
21	0x3e9b4474	0.30325663
22	0x3e0e1111	0.13873698
23	0x3df53598	0.11973113
24	0x3ecbe5d6	0.39823788
25	0x3e929caf	0.28635165
26	0xbec04064	-0.37549126
27	0xbe0c7ed2	-0.13720253
28	0xbe4dfe4b	-0.20116536
29	0x3e9e7f1d	0.30956355
30	0x3c64e6a1	0.013971002
31	0x3e7b6b6d	0.24552698
32	0x3d86903c	0.06570479
33	0x3e0761d9	0.1322092
34	0x3e5496d3	0.2076066
35	0x3ee634f0	0.44962263
36	0x3e830593	0.2559019
37	0x3e2ac0a4	0.16675049
38	0xbd8574d9	-0.065164275
39	0x3c64b88a	0.013960013
40	0x3ee1268b	0.43974718
41	0xbee78f91	-0.4522672
42	0xbe4db09c	-0.20086902
43	0xbea9d7c4	-0.3317243
44	0xbeb4cba3	-0.35311612
45	0x3e7e8714	0.24856216
46	0x3ee5994c	0.4484352
47	0x3e82af8f	0.25524566
48	0x3ef72cec	0.4827646
49	0xbd0007ef	-0.031257566
50	0x3da3faae	0.08006798
51	0xbe9d3ab7	-0.30708858
52	0xbebe6aca	-0.3719085
53	0xbe815b27	-0.25264856
54	0xbe8f82f2	-0.2802959
55	0xbe719317	-0.23591267
56	0x3e35db7a	0.17759505
57	0x3eb56131	0.35425714
58	0x3de145d0	0.10999644
59	0xbe54a5a9	-0.2076632
60	0xbd985837	-0.07438701
61	0x3ec36350	0.38161707
62	0x3ec28343	0.3799077
63	0x3e84387a	0.25824338
64	0x3e9676cf	0.2938752
65	0x3e8799be	0.26484483
66	0xbe569190	-0.20953965
67	0xbddab7e1	-0.10679603
68	0x3e494e51	0.19658782
69	0x3d9a5d8b	0.07537373
70	0xbe33e817	-0.17569004
71	0x3df84dc7	0.1212421
72	0x3e9946dc	0.29936874
73	0x3e0c4004	0.13696295
74	0x3eae5deb	0.3405603
75	0x3e9d68b7	0.30743954
76	0xbbcdb4b6	-0.006277646
77	0xbd9ce150	-0.076601624
78	0xbe132395	-0.14369042
79	0x3e021a74	0.12705404
80	0x3e003c4e	0.12523004
81	0xbe7f832a	-0.24952379
82	0xbdd034fc	-0.10166356
83	0x3d1faa56	0.038980804
84	0x3c8ca720	0.017169535
85	0x3d410f7b	0.047133904
86	0x3e6b550d	0.22981663
87	0x3ea16cd4	0.31528342
88	0x3dbc3df2	0.09191503
89	0x3e34f696	0.1767219
90	0xbbb6eb4a	-0.005582248
91	0xbe4437ae	-0.19161865
92	0xbe3b1e86	-0.18273363
93	0xbddb9784	-0.10722259
94	0xbe74e39a	-0.23914948
95	0x3d63b785	0.05559494
96	0x3ecc8c9d	0.3995103
97	0x3ed9878d	0.4248623
98	0x3e966312	0.2937246
99	0x3dc6a4bb	0.096993886
100	0x3b91af86	0.004445973
101	0xbe961d1c	-0.29319084
102	0xbd6d2eb5	-0.05790587
103	0xbe8fd46d	-0.28091756
104	0xbea903ad	-0.33010617
105	0xbec2a9de	-0.38020223
106	0x3e7a890e	0.24466345
107	0x3e8de04f	0.27710196
108	0xbe076dcf	-0.13225482
109	0xbe2174df	-0.15767239
110	0x3df9d594	0.1219894
111	0x3e7fbbc7	0.24973975
112	0x3e9c7f2e	0.3056578
113	0x3e172b90	0.14762712
114	0x3e16b168	0.14716113
115	0x3ef4b26c	0.47792375
116	0xbe3c3575	-0.18379767
117	0xbddf1b3e	-0.10893868
118	0x3cb51d34	0.022108652
119	0x3dc6aa1d	0.09700415
120	0x3c4d8a05	0.012545113
121	0xbe847bd6	-0.2587573
122	0xbe159c4b	-0.14610402
123	0x3c2e7d34	0.010649968
124	0xbe4e5977	-0.20151316
125	0x3e8f4ce4	0.2798835
126	0x3e89b8d9	0.2689884
127	0x3e4fdb11	0.20298411
128	0xbdb729df	-0.08943533
129	0xbcc049a2	-0.02347261
130	0x3d96e1ad	0.07367263
131	0xbeb6df16	-0.35717076
132	0xbdba5eae	-0.0910009
133	0xbe4bf8f5	-0.19919188
134	0xbe56e64b	-0.20986287
135	0xbe545410	-0.20735192
136	0x3e852d2e	0.26011032
137	0x3e54358e	0.20723554
138	0xbe0ebee0	-0.1394
139	0xbec7e999	-0.39045408
140	0x3e56e77d	0.20986743
141	0xbe84adb0	-0.25913763
142	0xbe3637ca	-0.1779472
143	0xbe13b014	-0.14422637
144	0xbe1fcdc2	-0.15605834
145	0xbe154869	-0.14578404
146	0x3ed28b7c	0.41122043
147	0x3e006925	0.1254011
148	0x3da79809	0.08183295
149	0xbeaa8fe4	-0.33312905
150	0x3d7af08c	0.06126456
151	0xbda7804d	-0.08178768
152	0xbe3a038a	-0.18165413
153	0xbeb3adbd	-0.3509349
154	0xbea239a8	-0.31684613
155	0x3c9d6ece	0.019217875
156	0x3ecaea3c	0.39631832
157	0x3dd1d5f6	0.10245888
158	0x3e8a9706	0.27068347
159	0xbdf0cb58	-0.11757535
160	0xbe9ce225	-0.30641285
161	0x3f0faf12	0.5612651
162	0x3e978705	0.295952
163	0x3e8e61d9	0.27809027
164	0x3ee9cd70	0.4566455
165	0x3ea86648	0.32890534
166	0xbeeb8cce	-0.46005863
167	0xbe9b3b92	-0.30318886
168	0x3e9f6fdb	0.31140026
169	0x3d509fbe	0.050933592
170	0xbb8989d3	-0.004197338
171	0xbe6f3729	-0.23360886
172	0xbea8d618	-0.3297584
173	0xbea1daf3	-0.31612357
174	0xbe65ca37	-0.2244042
175	0xbca5bdba	-0.02023207
176	0x3e8d84ff	0.2764053
177	0x3e5c01c1	0.21485044
178	0x3dddf478	0.10837644
179	0x3de24e52	0.11050095
180	0x3e0270c3	0.12738328
181	0x3e849091	0.25891545
182	0x3e8dfd73	0.2773243
183	0x3ed54d5e	0.4166059
184	0x3e9d90ea	0.30774623
185	0x3f04e640	0.51913834
186	0xbe7938ec	-0.2433812
187	0xbe420045	-0.18945415
188	0x3d243dc0	0.040097952
189	0xbde5fc66	-0.11229782
190	0x3d8d54d7	0.069009475
191	0xbe87bbfb	-0.26510605
192	0xbeaf69a5	-0.34260288
193	0xbec14d0f	-0.37754104
194	0xbe887759	-0.26653555
195	0x3d87c03f	0.06628465
196	0x3db8d24f	0.09024488
197	0x3e2dcbfa	0.16972342
198	0x3ebbfac4	0.36714756
199	0xbc2ea4a1	-0.010659368

onnx::MatMul_23 f4 [10, 5]
0	0x3e98a49b	0.29813084
1	0x3d79c93b	0.060982924
2	0xbe8f369d	-0.27971354
3	0x3ea14265	0.31495968
4	0xbea70af6	-0.3262555
5	0xbf297cfd	-0.6620634
6	0xbe1055c7	-0.14095221
7	0x3f045347	0.5168957
8	0x3d1297be	0.035789244
9	0x3f28a8fc	0.6588285
10	0xbf0270da	-0.5095345
11	0xbebc1660	-0.3673582
12	0x3eec8e14	0.46202147
13	0xbc2bb945	-0.010481183
14	0x3e871115	0.2638022
15	0xbef0e634	-0.4705063
16	0xbeca1c3c	-0.39474666
17	0x3ee781fb	0.45216355
18	0xbeb5b86d	-0.35492268
19	0x3f2de04d	0.6792038
20	0xbe9249ba	-0.28571874
21	0x3d5efeb2	0.054442115
22	0x3f1b8a4e	0.6075791
23	0xbeda2dec	-0.4261316
24	0x3e02c185	0.12769134
25	0x3eb64bae	0.35604614
26	0xbd9dacf5	-0.076990046
27	0x3ec088b6	0.37604302
28	0xbf154fa2	-0.58324635
29	0x3e66b15f	0.22528599
30	0x3f044e73	0.51682204
31	0x3f21c25e	0.63187206
32	0xbec0332e	-0.37539047
33	0x3e7eb45e	0.24873492
34	0xbe4c75d4	-0.19966823
35	0x3f0acb35	0.5421632
36	0x3e9d45cf	0.30717322
37	0xbe372d34	-0.17888337
38	0x3ed2e22d	0.41188183
39	0xbdd4470b	-0.10365113
40	0x3ee04f6d	0.43810597
41	0x3ed63176	0.4183461
42	0xbe8586d5	-0.2607943
43	0x3e8aa26f	0.27077052
44	0x3c733219	0.014843487
45	0xbf255036	-0.6457552
46	0xbf16f804	-0.5897219
47	0x3ee12012	0.4396978
48	0xbe1c6a7a	-0.15274993
49	0x3f213cda	0.6298348

onnx::MatMul_24 f4 [5, 1]
0	0x3f27a7ec	0.65490603
1	0x3f09bd82	0.5380479
2	0xbf459a20	-0.771883
3	0xbfa676ab	-1.3004965
4	0xbed83e58	-0.42235065
