neuron/js/PlanktonBot.onnx (onnx, 55770 bytes, 3 tensors)

onnx::MatMul_17 f4 [385, 10]
00000000: c71a 103d fbe3 4cbe bffd d23d 4caa 1c3e
00000010: a007 9a3d b796 033e 9b0e c0bc b615 d63d
00000020: 9894 0a3d a927 f03d 21b5 64be 8a34 05bd
00000030: 03fc a93d 8e04 2a3e 403b 1c3e 9917 9d3c
00000040: 6ff9 b7bd de55 2c3d 7518 003d b9a7 62bd
00000050: ccd8 ccbc 79e6 0b3e 15d5 e33d d816 183e
00000060: 4ad4 933d 94cc a13d f9d6 59be fcd8 5d3d
00000070: b8a9 2dbc 3896 02be da6e d13d aa45 843d
00000080: 43ec d03e fa53 f93e 7aca 96bc a94f 953e
00000090: 86ad 293d 1baf 813e 29bc ea3d 5c15 c1bd
000000a0: 9f19 a73d 5484 9e3d 8a10 733c edcf b9bc
000000b0: 5a04 fb3d 6cbf 94bd b052 483d bcb8 2ebd
000000c0: a844 d2bc 4a6a 3d3d 7135 043d dd7c 5a3c
000000d0: f6ad eebc e656 84b9 d5a4 69bc c2da 07bc
000000e0: 88bf dcbc 8dd6 0ebc 6f6e aebc 5029 05bd
000000f0: f977 313d 4975 60bd b272 e03d 8cbd fd3d
00000100: a271 483d 457c cf3d a048 23bd 3ebe ea3d
00000110: 089b ef3d 47b1 86ba 9c9a 01be a67c 5ebe
00000120: 2d2d 1c3c 6912 373e 7874 c23c 7c4e 083d
00000130: 2503 323d 2628 df3c d5cb d53d 82c8 003c
00000140: db01 cdbc 518b 4abe d199 0f3d 40c4 a83d
00000150: 615c 9cba 6010 333d acc6 fbbc 9f36 ab3d
00000160: dd16 fa3c 3e04 a03c b2ca abbe 75d1 93bd
00000170: cd6d 353e e1ac e63e d188 8f3c bd2f 243e
00000180: e0cc 3ebe c189 1e3e 1148 4f3e 9951 bdbd
00000190: f46d 023e ea7f 6a3c f26c f2bc d5be 233d
000001a0: cdde 1c3e cca2 27bd b870 7f3d 316a 0bbd
000001b0: 62be 32bd d189 363e 9a74 e7ba 9d3e 14bd
000001c0: 4814 0c3c 9c41 993c af12 8a3b 203d 503c
000001d0: 5d67 5e3c 44b3 323d a8a1 503d 60a4 63bc
000001e0: 1417 683d 269c 84bd 9463 cc3d accc 593e
000001f0: 4e36 413c 5f29 f03d 90f7 dabd af99 753d
00000200: 1f59 8d3d cacc a6bd b098 41bd 5d9a 95bd
00000210: 1e07 243c 1023 34be f8ee 8fbd 4b5a de3c
00000220: f848 a7bd d909 023e 07dd 1d3c e756 f8bd
00000230: f5c7 e23c c05b 80bd 0863 c13d 2df4 543e
00000240: 41c8 7c3b 4d4f bf3d 9bae c43c a4c4 943d
00000250: 4943 4c3d ec8e 8bbb fd96 c43d 6b61 4dbc
00000260: 747d 1f3e 5600 dd3e 606a 9f3c 1b6c 623e
00000270: d790 00be 4d81 2c3e d6dd 633e d6f2 a4bd
00000280: 32bf 7d3d 1c33 66bc dfe2 c13b 0cf0 dd3d
00000290: ade9 053e fd64 d9bc d2e8 103e 3aa2 9b3b
000002a0: e385 25bd c84a 043e 9568 a9bc d1f8 103b
000002b0: b889 0b3d 16b3 a4bc c106 053d eede 893c
000002c0: a2e7 79bc e470 dcbc 149a 82bb 7ed8 ab3c
000002d0: bdb6 aa3d 19cf aabd f9a6 eb3d faf6 8e3e
000002e0: eb09 04bc a327 f43d 8ee1 99bc a40f 783d
000002f0: a81a e33d 0610 3ebd 23b1 ffba 2102 a5bd
00000300: dc94 ad3d f07d a43d 71d2 4a3d 5001 773d
00000310: 55de f1bc 2256 fd3c 49ac 363d 1c3f 03bd
00000320: a95f 0f3c ab58 0ebe ab45 903d d577 6a3c
00000330: 4d5a c43c 18b2 723d dae0 283c d7ac 1d3d
00000340: 0ba8 893d 486e f1bc 238b d03d 2c5a 7ebd
00000350: d727 143e dc00 ea3d 6fb4 84bc 44b3 483e
00000360: b8c9 0fbe 5842 693e d803 223e ca70 99bd
00000370: 77ed 873d ec9f 0fbc b98d 8ebc 6d48 07ba
00000380: 3eba 0a3e 33a8 b83c e541 1f3e b3ce 34bb
00000390: d215 bb3c f4ab 6e3e e0c5 a93d 6b6f 973b
000003a0: 1799 d2bc 7969 523e fcc4 ddbc 0d7d a93b
000003b0: 7c52 ccbb 0ba3 62bc 78ff 173d bb1a 653d
000003c0: 0db3 7e3d 8506 55bd 1b96 953d e24f 6e3e
000003d0: a3f5 583d 9253 cb3d a6d7 0abd 1248 f13d
000003e0: 857d c53d 3164 41bc b2ba 173c 27cc 43bd
000003f0: 4551 333d 7325 acbc 02e3 1b3d a425 3c3d
0.035181787 -0.20008843 0.103023045 0.15299338 0.075209856 0.12850462 -0.023444464 0.1045336
0.033833116 0.117263146 -0.2233472 -0.03252081 0.083000205 0.166033 0.15256977 0.019176291
-0.089831226 0.042074077 0.031273324 -0.055335734 -0.02500572 0.13662137 0.111246265 0.14852464
0.07218225 0.07900348 -0.21273412 0.05416201 -0.010599546 -0.12752616 0.102262214 0.064586
0.40805253 0.48696882 -0.018407095 0.29162338 0.04142525 0.25328907 0.1146167 -0.09427902
0.08159184 0.07740083 0.014835486 -0.022682155 0.12256689 -0.07263073 0.048906982 -0.042656645
-0.025667503 0.046243943 0.03227753 0.013335434 -0.029135685 -0.00025241746 -0.01426049 -0.008291902
-0.026946798 -0.008718145 -0.021292893 -0.0325101 0.043327305 -0.05479935 0.109593764 0.12389669
0.048936494 0.101311244 -0.039864182 0.11462067 0.11699492 -0.0010276221 -0.12656635 -0.21727237
0.009532255 0.17878117 0.023737177 0.033277974 0.04346003 0.027240824 0.104392685 0.007860305
-0.025025299 -0.19779707 0.0350588 0.08240557 -0.0011929387 0.04371679 -0.030734383 0.083600275
0.03052848 0.019533273 -0.33553082 -0.07217685 0.17717667 0.4505377 0.017521294 0.16033836
-0.18632841 0.15482236 0.20242335 -0.09244079 0.12737256 0.014312724 -0.029592965 0.039976913
0.15319367 -0.04092674 0.062363356 -0.03403682 -0.043638594 0.1782601 -0.0017658651 -0.036192525
0.008549757 0.018708043 0.004213653 0.012709886 0.013574448 0.043627992 0.050935417 -0.0138941705
0.056662634 -0.064750955 0.099799305 0.21269482 0.011792732 0.11726641 -0.1069175 0.059961017
0.06901764 -0.08144529 -0.047264755 -0.07304833 0.0100114625 -0.175915 -0.070280015 0.027142664
-0.081682146 0.12699069 0.009635217 -0.1212595 0.027683238 -0.062675 0.09442717 0.2079627
0.003857151 0.09341297 0.02400904 0.07264069 0.049868856 -0.004258981 0.09599111 -0.012535433
0.155752 0.4316432 0.019459903 0.22111551 -0.12555252 0.168462 0.22252592 -0.0805413
0.061949916 -0.014050271 0.0059169377 0.10836801 0.13077421 -0.026537413 0.14151314 0.0047495635
-0.040410887 0.12919152 -0.020679751 0.0022120962 0.034066886 -0.020104926 0.032477144 0.016829934
-0.0152529795 -0.0269093 -0.0039856527 0.020977255 0.08335636 -0.08340282 0.11506457 0.27922803
-0.008059005 0.119216226 -0.01878431 0.06056179 0.11089069 -0.046402 -0.0019507747 -0.08057047
0.08475658 0.08031833 0.0495171 0.060303986 -0.029524961 0.03092486 0.044597898 -0.032042608
0.0087508345 -0.13901012 0.07044538 0.014310797 0.02396884 0.059251875 0.010307515 0.03849491
0.06721505 -0.029471532 0.10182788 -0.062097713 0.14468323 0.11425945 -0.016199319 0.19599634
-0.14041793 0.22779214 0.15821779 -0.07492216 0.0663709 -0.008766156 -0.017401563 -0.00051606336
0.13547608 0.022541141 0.1555248 -0.0027589023 0.022837553 0.23307782 0.08289695 0.0046214364
-0.025707765 0.20548047 -0.027071469 0.005172378 -0.006235419 -0.013832818 0.03710887 0.055933695
0.062182475 -0.05200817 0.07304021 0.2327266 0.052968632 0.09928049 -0.033897065 0.117813244
0.096430816 -0.011803673 0.00926082 -0.047802117 0.043778677 -0.02101395 0.03805829 0.045934334

onnx::MatMul_18 f4 [10, 5]
00000000: 643f 4a3f 70d2 5ebf 77cd 333f a155 39bf
00000010: f20b 0ebd 7e22 a3be d713 503e 1fb3 00bf
00000020: 3b52 1a3f b587 aa3e 32f1 073f de38 08be
00000030: 41af 093f 3ccc ffbe 323a 203f 1567 9c3e
00000040: cde5 8c3e ef80 d33e 88df 3e3e b3c7 c0be
00000050: 246f e43e c3fd 3cbf 3ab1 623f a314 2abf
00000060: 4983 453f 538a 113f 53ee 1fbf 8aed 113f
00000070: b307 00bf e288 1b3f 2c63 d3be fb68 2d3f
00000080: de60 ddbe 3a08 0a3f d4ed 933d a744 2f3f
00000090: a704 0fbf 9949 353f 1830 0bbf 2627 a6bc
000000a0: 4167 023f 6cfd 02bf 11a3 033f fa43 18bf
000000b0: f948 3e3e 57eb 37be a45d 053d 52ff 77be
000000c0: b44b f73e 0ce1 08bd
0.79002976 -0.8703985 0.7023539 -0.72396284 -0.03467936 -0.31862253 0.20320068 -0.5027332
0.60281724 0.3330666 0.5310241 -0.13302943 0.5378304 -0.49960506 0.625888 0.30547395
0.27519074 0.41309306 0.18639958 -0.37652358 0.44616044 -0.7382471 0.88551676 -0.6643774
0.7715345 0.5685169 -0.6247303 0.5700308 -0.5001175 0.6075574 -0.412866 0.6773831
-0.43237966 0.539188 0.072230965 0.6846413 -0.55866474 0.70815426 -0.5437026 -0.02028234
0.509388 -0.5116794 0.51420695 -0.59478724 0.18582524 -0.17960869 0.032560006 -0.2421849
0.48299944 -0.033417746

onnx::MatMul_19 f4 [5, 1]
00000000: dd21 49bf d892 453f 7263 72bf 5afa 993f
00000010: 707a d33f
-0.78567296 0.7717719 -0.9468299 1.2029526 1.652174
